model/best_gcn_model.pth (torch, 282893 bytes, 12 tensors)

conv1.bias f4 [16]
0.21948013 0.17085406 0.09831589 0.18352687 0.14895916 0.14189467 0.117218874 0.17519082
0.14270231 0.18255867 0.09948744 0.22896032 0.20228419 0.16614473 -0.05327825 0.10749253
00000000: 66bf 603e 5ef4 2e3e d759 c93d 78ee 3b3e
00000010: c088 183e d64c 113e 7310 f03d 3965 333e
00000020: 8e20 123e a9f0 3a3e 12c0 cb3d 9374 6a3e
00000030: 9623 4f3e d821 2a3e 4b3a 5abd 0b25 dc3d

conv1.lin.weight f4 [16, 1433]
0.080678664 -0.107163675 0.35556155 0.2851541 -0.6436791 -0.011776373 0.31483015 0.10719506
-0.0927531 0.110592686 0.028913913 0.06489907 -0.25313935 0.10264265 -0.12191357 0.022343082
0.11172626 -0.13136399 -0.07379151 0.59533036 -0.00094334036 0.039721757 -0.07724341 0.19065225
-0.03880915 -0.086880624 -0.38455397 -0.3420605 -0.3176393 0.0077355984 -0.38713512 -0.03429619
0.0040947157 -0.002085436 -0.11094578 -0.3900023 0.072199106 -0.0040768287 0.18736719 0.31626508
-0.56536704 0.03695342 0.082246065 -0.08746295 0.11464891 -0.30632725 0.02725366 -0.33892664
-0.23765394 0.008848705 -0.43238583 0.48337248 0.20936434 0.016039127 -0.42926162 0.13040994
0.13079712 0.16422696 0.32447177 0.06905204 0.00021193479 0.63218355 0.022900686 0.05974494
-0.34834883 0.07917776 -0.064092934 -0.0012017994 0.0052941833 -0.026623063 -0.27012718 -0.04757055
0.013833948 0.034923516 -0.10285562 0.07676292 -0.40411425 0.24079941 -0.47100198 -0.011957952
0.051595815 -0.18050285 -0.35498914 -0.25228515 -0.22555758 0.10305407 -0.23658068 0.0016256256
0.2693501 0.43184155 0.04702487 -0.3545363 -0.059449572 -0.4796638 -0.067111716 0.15506782
0.009722915 0.36812165 -0.26229548 0.646826 0.118416846 0.041963637 0.13145144 0.089436956
0.17212498 0.05695395 -0.06455831 -0.13088061 -0.48663914 0.028308151 0.00196073 0.07729276
-0.024775516 0.008610937 -0.011728647 0.10089437 -0.17688487 -0.111889854 0.5807374 -0.004910318
0.0027927232 -0.21534272 -0.15190074 -0.27235666 0.10251464 0.43577707 0.13048652 0.056147043
0.31581262 0.10077609 0.047890887 0.28216708 0.49351752 0.041405503 0.10115364 0.49113032
0.34796196 -0.026442535 0.03294669 -0.023468034 0.6198807 -0.05376169 0.1350252 0.052468963
0.023558758 -0.0005045344 0.26024118 -0.03444101 -0.10157566 0.4082582 0.038975608 -0.30967724
0.18381476 0.11942225 -0.20172891 0.2004435 -0.22236736 0.090553805 0.049157567 0.04831077
0.091856204 -0.008962592 0.08747666 0.17117956 0.063742064 0.011716485 0.048816398 0.19410305
0.41049433 0.055807464 -0.1258595 0.0019043939 0.18597881 0.06013111 -0.39367852 0.012233602
0.15356229 -0.03438768 -0.06262395 -0.12275316 -0.01362862 0.12125479 -0.23374584 -0.050088782
0.013653518 0.009286411 -0.12617235 0.036431313 -0.511134 -0.23314106 -0.018012488 -0.22801144
0.0050861714 -0.027905654 -0.21450311 -0.022193413 0.16700651 -0.011576364 0.10134018 0.09008272
-0.16339067 0.00855079 -0.25974095 0.37516516 0.02074818 -0.28095582 -0.06297286 0.019871695
0.3282709 0.050358444 -0.034716833 0.084049895 0.422784 0.23252255 0.024694087 -0.017595757
0.018498054 0.10629178 0.02167544 0.036792006 0.024901975 -0.08464913 -0.036410704 0.012943549
-0.29357496 0.3742989 -0.19729646 0.07275132 -0.092401035 0.0786037 0.09234869 -0.07384907
0.15344678 -0.21131574 -0.50853664 0.04954589 -0.11010251 0.21538791 0.2757527 0.029039655
0.1856464 -0.005352002 0.04439657 -0.11469243 -0.10480946 -0.0083553605 0.007597876 0.22441228
0.059876114 -0.024142925 0.5624384 0.06916539 0.06382438 0.012009383 0.09323262 0.070610985
00000000: db3a a53d a178 dbbd 2a0c b63e b8ff 913e
00000010: 27c8 24bf b0f1 40bc 6b31 a13e 1589 db3d
00000020: 56f5 bdbd 6b7e e23d dfdc ec3c cee9 843d
00000030: 7b9b 81be 4f36 d23d d2ad f9bd d708 b73c
00000040: bdd0 e43d 4884 06be 0120 97bd 9267 183f
00000050: 804a 77ba 48b3 223d cb31 9ebd 583a 433e
00000060: 58f6 1ebd 78ee b1bd 42e4 c4be 8e22 afbe
00000070: 9ea1 a2be e77a fd3b 9336 c6be 297a 0cbd
00000080: f72c 863b cfab 08bb 8b37 e3bd 62ae c7be
00000090: 20dd 933d eb96 85bb 2fdd 3f3e 7fed a13e
000000a0: e5bb 10bf 785c 173d a070 a83d c61f b3bd
000000b0: 0ccd ea3d edd6 9cbe 1143 df3c cb87 adbe
000000c0: 8e5b 73be 29fa 103c ad61 ddbe 997c f73e
000000d0: 9b63 563e 7d64 833c 2ec8 dbbe 2f8a 053e
000000e0: aeef 053e 1d2b 283e 2a21 a63e 286b 8d3d
000000f0: d03a 5e39 c8d6 213f 389a bb3c 1cb7 743d
00000100: c75a b2be f327 a23d 2843 83bd b285 9dba
00000110: d47a ad3b 9c18 dabc 1c4e 8abe 56d9 42bd
00000120: c9a7 623c f60b 0f3d f8a5 d2bd e135 9d3d
00000130: 10e8 cebe 1f94 763e 2c27 f1be 49eb 43bc
00000140: 2256 533d bdd5 38be 23c1 b5be 852b 81be
00000150: 91f8 66be 030e d33d 3542 72be f212 d53a
00000160: 42e8 893e 561a dd3e 269d 403d c885 b5be
00000170: 6581 73bd 7e96 f5be de71 89bd 19ca 1e3e
00000180: dc4c 1f3c 717a bc3e 984b 86be 6496 253f
00000190: 8884 f23d 10e2 2b3d 359b 063e b92a b73d
000001a0: 8841 303e 8c48 693d 2637 84bd 9105 06be
000001b0: c428 f9be 7fe6 e73c 977f 003b ab4b 9e3d
000001c0: 06f6 cabc e314 0d3c 8329 40bc b5a1 ce3d
000001d0: 4f21 35be 8226 e5bd 35ab 143f bce6 a0bb
000001e0: 1f06 373b cd82 5cbe de8b 1bbe 5572 8bbe
000001f0: 32f3 d13d 2c1e df3e 429e 053e 71fa 653d
00000200: 31b2 a13e b263 ce3d 3c29 443d 3478 903e
00000210: 54ae fc3e d198 293d a429 cf3d 6f75 fb3e
00000220: 1228 b23e 049e d8bc 1cf3 063d 0940 c0bc
00000230: 80b0 1e3f 3835 5cbd 0c44 0a3e b2e9 563d
00000240: 4cfe c03c bb42 04ba 553e 853e 0412 0dbd
00000250: e606 d0bd 3807 d13e e3a4 1f3d 048e 9ebe
00000260: f039 3c3e a793 f43d 0692 4ebe 1041 4d3e
00000270: 45b4 63be 4674 b93d 7259 493d 84e1 453d
00000280: 1b1f bc3d d6d7 12bc f726 b33d b249 2f3e
00000290: 338b 823d 80f6 3f3c b4f3 473d f3c2 463e
000002a0: 502c d23e 5e96 643d 50e1 00be db9c f93a
000002b0: 3b71 3e3e 0a4c 763d 3b90 c9be 726f 483c
000002c0: 6f3f 1d3e 19da 0cbd fc40 80bd 0266 fbbd
000002d0: 934a 5fbc 6e54 f83d 125b 6fbe e529 4dbd
000002e0: 01b3 5f3c 0826 183c 5333 01be 0039 153d
000002f0: aed9 02bf 88bc 6ebe ed8e 93bc d57b 69be
00000300: e6a9 a63b 669a e4bc b4a6 5bbe f6ce b5bc
00000310: c103 2b3e caaa 3dbc 718b cf3d 4a7d b83d
00000320: e24f 27be 9d18 0c3c c4fc 84be a615 c03e
00000330: 16f8 a93c 71d9 8fbe eaf7 80bd f7c9 a23c
00000340: 2013 a83e a844 4e3d 3d33 0ebd 5a22 ac3d
00000350: 2577 d83e 641a 6e3e 414b ca3c fa24 90bc
00000360: 3b89 973c 81af d93d b190 b13c 37b3 163d
00000370: 3aff cb3c 865c adbd 6423 15bd 2e11 543c
00000380: 754f 96be 1ba4 bf3e 1508 4abe a5fe 943d
00000390: c13c bdbd fafa a03d 4f21 bd3d 2e3e 97bd
000003a0: 2721 1d3e 2763 58be 752f 02bf a2f0 4a3d
000003b0: 6d7d e1bd a68e 5c3e 752f 8d3e 92e4 ed3c
000003c0: 171a 3e3e d95f afbb 2ed9 353d dde3 eabd
000003d0: 58a6 d6bd ece4 08bc 9af7 f83b 55cc 653e
000003e0: a840 753d 62c7 c5bc f7fb 0f3f 96a6 8d3d
000003f0: 5bb6 823d 01c3 443c bef0 be3d 7e9c 903d

conv2.bias f4 [7]
-0.60328895 -0.09102707 0.6476988 -0.59264046 -0.5049456 0.61592346 0.0036144687
00000000: 2571 1abf 676c babd 97cf 253f 49b7 17bf
00000010: 1d44 01bf 29ad 1d3f b9e0 6c3b

conv2.lin.weight f4 [7, 16]
0.3782322 0.039426118 1.0062956 0.24479339 0.12056059 0.31539658 0.9879434 0.951279
0.760167 -0.88009304 0.96412116 -0.71281344 -0.7237246 0.88729316 0.06980881 0.919321
1.0874829 0.45172828 -0.95926225 0.40767574 0.9418092 1.0759155 -0.7335928 0.90680593
-0.614157 -0.8045978 -0.4741667 0.62590677 -0.763733 -1.1022736 -0.015070041 -0.79976434
1.0887583 -1.0451382 -1.0234416 -0.80656266 -1.11969 -1.0877004 -1.0067691 -0.11677776
-0.9875516 0.44433868 -0.8950033 0.7168988 0.994526 -0.9657879 0.0117150545 -0.9765341
0.63549715 0.6627129 -0.14347962 -1.019604 0.66591984 0.70360893 0.8463019 -0.9909294
0.80229574 0.34933823 0.4334458 -0.9899305 0.631773 0.8779375 0.0006246193 0.8851556
0.9654201 0.83738214 -1.1213344 -1.0074459 0.6862537 -1.0304644 0.798925 -0.8762362
0.5439538 -0.86098 -1.0634761 0.8926123 1.0329945 0.9584552 0.0018812314 0.677204
-0.9427301 -1.0083395 0.6346142 0.40918165 0.66934454 -0.89804035 0.47845322 -0.79373664
-0.54891276 0.39993382 0.4541711 0.2932252 -1.0238211 -0.77127105 0.00018997659 -0.6427728
-0.68784034 -0.9277337 -1.0481889 1.0708365 -0.8748322 0.57799846 -1.0884963 1.0381992
0.78659815 0.68700457 -1.040019 -0.89053506 1.1184406 -0.19425625 0.0104489345 -0.7372204
00000000: a7a7 c13e 487d 213d 4bce 803f 1eab 7a3e
00000010: 78e8 f63d a97b a13e dce9 7c3f 0587 733f
00000020: 4e9a 423f c74d 61bf a5d0 763f f17a 36bf
00000030: 0446 39bf a525 633f ecf7 8e3d 9f58 6b3f
00000040: a432 8b3f ee48 e73e 3692 75bf e0ba d03e
00000050: 681a 713f 99b7 893f bdcc 3bbf 6f24 683f
00000060: 6539 1dbf 1ffa 4dbf fac5 f2be 6d3b 203f
00000070: 0284 43bf 4d17 8dbf 55e8 76bc 5bbd 4cbf
00000080: 6f5c 8b3f 17c7 85bf 2200 83bf e47a 4ebf
00000090: 0052 8fbf c439 8bbf cfdd 80bf 2e29 efbd
000000a0: 2fd0 7cbf 5c80 e33e f01e 65bf ae86 373f
000000b0: 4299 7e3f e03d 77bf 80f0 3f3c 24fe 79bf
000000c0: f1af 223f 8da7 293f 52ec 12be 6282 82bf
000000d0: b979 2a3f b71f 343f 3ea7 583f 8dad 7dbf
000000e0: 4163 4d3f 76dc b23e 9cec dd3e 166c 7dbf
000000f0: e0bb 213f 83c0 603f 7ebd 233a 8f99 623f
00000100: c625 773f ad5e 563f e387 8fbf fdf3 80bf
00000110: 53ae 2f3f 42e6 83bf 5986 4c3f 0451 60bf
00000120: 8e40 0b3f 2f69 5cbf fc1f 88bf 3d82 643f
00000130: 2a39 843f 525d 753f a793 f63a 3e5d 2d3f
00000140: c356 71bf 4511 81bf 1476 223f 4280 d13e
00000150: 2a5a 2b3f f9e5 65bf d2f7 f43e 5332 4bbf
00000160: 8c85 0cbf 20c4 cc3e 1d89 e83e 9d21 963e
00000170: 920c 83bf 0572 45bf 7434 4739 c28c 24bf
00000180: 4e16 30bf f57f 6dbf 0e2b 86bf 2c11 893f
00000190: 01f5 5fbf b5f7 133f d953 8bbf b6e3 843f
000001a0: 7f5e 493f 88df 2f3f 581f 85bf 1bfa 63bf
000001b0: 1029 8f3f 1ceb 46be 0232 2b3c 7aba 3cbf

exp_avg f4 [16]
-0.0029177857 -0.0023179364 0.0022339043 0.0067565027 -0.00025743034 -0.0006686448 0.0051798914 -0.0029274493
-0.008702755 0.0020814927 0.0072436035 -0.010024459 0.0005149636 0.0073384233 -2.4770567e-05 -0.0016189873
00000000: 5238 3fbb 85e8 17bb b266 123b a765 dd3b
00000010: b7f7 86b9 fe47 2fba 14bc a93b 73da 3fbb
00000020: 0096 0ebc a769 083b c05b ed3b a13d 24bc
00000030: 9ffe 063a 2877 f03b 63ca cfb7 3334 d4ba

exp_avg_sq f4 [16]
3.2554963e-05 2.4561721e-05 3.251045e-05 2.878732e-05 3.7625527e-05 3.063091e-05 4.4500233e-05 3.9683222e-05
2.5588319e-05 1.5097587e-05 4.368441e-05 2.767316e-05 3.5804067e-05 2.5412302e-05 7.914817e-07 3.8511418e-05
00000000: a08b 0838 e509 ce37 d45b 0838 4d7c f137
00000010: 1ad0 1d38 b079 0038 c3a5 3a38 8971 2638
00000020: 7fa6 d637 a44b 7d37 c739 3738 a923 e837
00000030: 532c 1638 812c d537 3576 5435 5287 2138

exp_avg f4 [16, 1433]
-4.8300135e-06 6.136762e-08 -2.1914917e-05 9.355015e-06 0.0013115868 -2.28975e-06 -1.1555349e-05 7.4439026e-06
-1.4012232e-05 5.689404e-06 1.2157442e-06 1.3032304e-06 4.552109e-06 3.203212e-06 1.7166463e-05 9.29854e-06
1.1136905e-05 1.2077687e-05 1.4847634e-05 -0.0020118833 1.2777262e-07 -1.619317e-06 1.7623101e-06 1.5410884e-05
-2.2643185e-06 -6.9088155e-06 2.849264e-05 3.5348752e-05 -8.176703e-06 -8.2601524e-08 1.7930734e-05 -3.7928663e-07
1.6732976e-06 9.025791e-08 7.0358888e-06 1.3840735e-05 7.155977e-06 1.0882264e-05 1.9882877e-05 -1.7808583e-05
0.00022800422 3.8595397e-05 5.127417e-07 -3.167051e-06 3.105171e-06 6.122717e-05 3.649696e-06 -2.5668784e-05
-1.99153e-05 -8.1735317e-07 7.07116e-06 -0.00031167976 3.9670485e-05 -3.5283438e-07 -5.878546e-06 -1.4484533e-05
-3.1418458e-06 5.41927e-06 8.1147255e-06 -2.7077874e-06 1.6424264e-07 -0.00016619086 -1.43831785e-05 3.4209093e-05
4.5649063e-05 -1.2554871e-05 3.080783e-06 -8.383815e-06 1.6101999e-06 -5.47088e-06 -1.975347e-06 4.952057e-07
-2.0635606e-07 -3.7487562e-06 -1.674577e-05 -3.4009952e-06 9.537085e-05 2.509688e-05 2.9115592e-05 2.9314756e-06
-5.3502804e-06 4.7227633e-05 -2.8362461e-05 1.2398532e-05 -2.3497036e-05 1.6010731e-06 1.5645417e-05 -7.4976297e-06
4.177094e-05 -6.1386134e-05 -1.1527451e-05 1.0909436e-05 -2.7347643e-05 0.00073298666 -3.6616561e-06 3.8761914e-06
2.1756396e-05 3.0542888e-05 5.6099387e-05 -0.0009863721 1.3201518e-06 1.5228536e-06 8.64937e-06 4.2667025e-06
1.2057252e-05 -3.4540901e-06 1.2770465e-05 2.692799e-06 0.00030437935 -5.632245e-07 7.7757454e-07 2.6738282e-06
-1.1970107e-05 -3.371941e-07 2.4870596e-07 -1.4942365e-06 -1.1234829e-06 -7.2339494e-06 -0.00029166174 -3.1972297e-06
1.4916806e-06 4.7637997e-07 -1.13423916e-07 -3.6069287e-05 -9.280816e-06 1.9206238e-05 -4.6388446e-05 -5.1319425e-06
1.0627768e-05 -2.7821054e-06 -4.9484788e-05 -1.6259639e-05 -0.00021386771 -7.228736e-06 -7.9978304e-07 -6.6221e-05
3.398784e-05 1.8692815e-07 -5.80891e-07 -7.9353003e-07 -0.00034991905 -4.64026e-06 1.2567509e-06 3.834963e-07
4.453705e-07 -1.4452043e-07 -9.945122e-06 -4.7062454e-06 -7.644048e-07 -9.582039e-06 5.633466e-07 5.9244678e-05
-8.478915e-06 8.6522705e-06 -1.9152951e-06 1.1698511e-05 6.983167e-06 -4.8663946e-06 -1.7669989e-06 -1.8471061e-06
7.861764e-06 3.4178042e-06 -5.5705327e-06 -6.8650766e-06 -1.46792e-06 1.1729381e-07 -5.509836e-07 -1.33420845e-05
-9.4869276e-05 1.1545116e-05 2.9378043e-07 -2.6179796e-07 2.5887015e-05 -1.8714833e-05 4.571378e-06 9.7007e-07
5.7423836e-06 5.5511177e-06 6.1917984e-07 1.9349149e-05 2.6713142e-06 3.5415915e-06 -3.3885924e-05 9.736758e-06
5.621695e-07 6.9808e-08 -7.836382e-06 -0.00017010767 9.6745665e-05 2.5938287e-05 4.855073e-06 8.026614e-06
-5.6495515e-05 -8.3217486e-07 8.2381985e-06 -9.76339e-06 1.2033811e-06 -5.5269265e-07 -2.106861e-06 -6.529715e-07
7.055371e-06 5.006157e-07 -7.699225e-06 1.3989818e-05 7.28551e-06 8.2809456e-05 3.8295743e-06 1.3131955e-05
-2.4131039e-06 9.745697e-07 2.7969124e-06 2.6829723e-05 1.6315476e-05 6.319969e-06 3.0455685e-06 6.19851e-07
7.0291134e-07 9.105229e-06 9.22845e-07 -7.187956e-07 9.878406e-08 9.302862e-06 9.907766e-06 4.7635334e-07
-2.2392338e-05 -5.2821677e-05 -9.168663e-06 -1.1695236e-06 2.5400714e-06 2.6257185e-06 -1.1949089e-05 9.912574e-07
5.968162e-06 7.973661e-06 0.00018769593 -5.057812e-06 9.143724e-06 7.531266e-06 3.292682e-05 -1.3207295e-05
-3.8258127e-06 2.9265016e-07 -1.6593007e-05 4.85948e-06 -2.5023958e-06 3.955034e-06 1.0084954e-06 -1.0020928e-05
5.0885646e-06 8.822128e-06 -0.000117634525 7.2175503e-06 5.6492754e-06 4.952355e-06 1.1125862e-06 -6.521074e-06
00000000: 8011 a2b6 35c9 8333 edd5 b7b7 7cf3 1c37
00000010: 8de9 ab3a 9ba9 19b6 d9dd 41b7 a3c6 f936
00000020: 1416 6bb7 9ce7 be36 a72c a335 a8ea ae35
00000030: 52be 9836 c3f6 5636 b300 9037 ed00 1c37
00000040: a5d8 3a37 45a1 4a37 1a1a 7937 cdd9 03bb
00000050: df31 0934 4f57 d9b5 8488 ec35 9f46 8137
00000060: b2f4 17b6 46d2 e7b6 7a03 ef37 6f43 1438
00000070: ac2e 09b7 ab62 b1b3 f569 9637 c2a0 cbb4
00000080: 1196 e035 d0d3 c133 d315 ec36 8135 6837
00000090: 601d f036 f892 3637 27ca a637 a463 95b7
000000a0: 6b14 6f39 7ee1 2138 57a3 0935 8689 54b6
000000b0: 6e62 5036 1667 8038 4ded 7436 4b53 d7b7
000000c0: c80f a7b7 1568 5bb5 cd44 ed36 f368 a3b9
000000d0: dc63 2638 306d bdb4 5340 c5b6 9802 73b7
000000e0: 80d8 52b6 2dd7 b536 7b24 0837 6fb7 35b6
000000f0: ac5a 3034 8543 2eb9 484f 71b7 bc7b 0f38
00000100: 4f77 3f38 c3a2 52b7 73bf 4e36 36a8 0cb7
00000110: 0c1e d835 8092 b7b6 3490 04b6 47ee 0435
00000120: b992 5db4 2493 7bb6 4479 8cb7 a73c 64b6
00000130: d601 c838 2487 d237 423d f437 5eba 4436
00000140: 8f86 b3b6 4916 4638 eceb edb7 4a03 5037
00000150: 801b c5b7 74e4 d635 473e 8337 2694 fbb6
00000160: 3533 2f38 6ebc 80b8 0666 41b7 ac07 3737
00000170: 9e68 e5b7 e725 403a c6ba 75b6 3b10 8236
00000180: 8181 b637 2d1b 0038 424c 6b38 2849 81ba
00000190: 1230 b135 da64 cc35 c31c 1137 b22a 8f36
000001a0: 8149 4a37 d1cc 67b6 bb40 5637 efb5 3436
000001b0: 1b95 9f39 7e30 17b5 84ba 5035 0570 3336
000001c0: 38d3 48b7 9b07 b5b4 e385 8534 938d c8b5
000001d0: 94ca 96b5 27bb f2b6 2dea 98b9 fd8f 56b6
000001e0: c135 c835 2ac1 ff34 7593 f3b3 1a49 17b8
000001f0: cdb4 1bb7 151d a137 3791 42b8 0d33 acb6
00000200: ea4d 3237 35b4 3ab6 e38d 4fb8 4f65 88b7
00000210: ad41 60b9 5f8e f2b6 acb0 56b5 21e0 8ab8
00000220: 2a8e 0e38 6bb6 4834 87ee 1bb5 f802 55b5
00000230: 5775 b7b9 88b3 9bb6 a2ad a835 55e3 cd34
00000240: 411b ef34 792d 1bb4 f9d9 26b7 57ea 9db6
00000250: 7f31 4db5 8bc2 20b7 e238 1735 7d7d 7838
00000260: aa40 0eb7 3829 1137 8588 00b6 b944 4437
00000270: f350 ea36 034a a3b6 9f29 edb5 15ea f7b5
00000280: 05e6 0337 6e5d 6536 83ea bab6 8f5a e6b6
00000290: 5905 c5b5 f4e2 fb33 4ee7 13b5 d1d7 5fb7
000002a0: 8ef4 c6b8 e5b1 4137 e0b8 9d34 3d8d 8cb4
000002b0: f127 d937 ccfd 9cb7 d763 9936 5a33 8235
000002c0: b3ae c036 bd43 ba36 b735 2635 fb4f a237
000002d0: d444 3336 14ac 6d36 bc20 0eb8 0f5b 2337
000002e0: fee7 1635 5be9 9533 0179 03b7 ee5e 32b9
000002f0: efe3 ca38 0c96 d937 c2e8 a236 0baa 0637
00000300: 99f5 6cb8 9f62 5fb5 cb36 0a37 71cd 23b7
00000310: dc83 a135 c05c 14b5 9963 0db6 dc47 2fb5
00000320: 2dbd ec36 0d62 0635 eb2b 01b7 d0b5 6a37
00000330: 0e76 f436 fda9 ad38 cb7f 8036 5151 5c37
00000340: cff0 21b6 f6cd 8235 97b2 3b36 6410 e137
00000350: 38dd 8837 1f10 d436 7862 4c36 d663 2635
00000360: b3af 3c35 a9c2 1837 6db9 7735 42f3 40b5
00000370: 1c23 d433 7d13 1c37 8839 2637 81bd ff34
00000380: 2ed7 bbb7 d88c 5db8 1cd3 19b7 86f8 9cb5
00000390: 1876 2a36 8035 3036 f278 48b7 580b 8535
000003a0: 1f42 c836 9dc6 0537 3ed0 4439 46b6 a9b6
000003b0: ff67 1937 15b5 fc36 e71a 0a38 e694 5db7
000003c0: 7b5f 80b6 881d 9d34 3631 8bb7 9e0e a336
000003d0: d5ee 27b6 7cb5 8436 a35b 8735 8f1f 28b7
000003e0: 70be aa36 c002 1437 8eb2 f6b8 492e f236
000003f0: e88e bd36 682c a636 2c54 9535 99cf dab6

exp_avg_sq f4 [16, 1433]
2.6518317e-11 2.8640004e-10 3.4622288e-10 5.8954563e-10 1.3122133e-07 1.9681432e-11 1.6353623e-10 3.334633e-11
1.3145912e-10 2.045344e-11 2.1907931e-12 1.064346e-11 2.423698e-09 2.5071771e-11 1.8323984e-10 3.3394507e-10
4.700537e-11 2.690076e-10 1.1644001e-10 2.561663e-07 3.1526687e-12 2.883018e-11 1.3236541e-10 1.2560483e-10
1.4387769e-11 2.9962224e-10 1.984945e-09 1.335386e-09 1.096521e-09 4.2877164e-12 3.3459846e-10 7.1023864e-12
1.1760648e-11 3.3471277e-12 1.5327832e-10 1.2768167e-09 1.7504938e-11 8.879134e-11 7.7218004e-10 4.4559736e-10
8.660207e-09 7.9793433e-10 1.5227975e-11 6.9841515e-11 7.1497724e-11 1.7643198e-09 1.8860852e-11 4.3082518e-10
2.906868e-10 8.714076e-13 6.6027844e-10 1.2908354e-08 5.7797306e-10 1.012443e-12 2.2134454e-09 1.00356744e-10
1.45224e-10 2.4903477e-10 1.9005961e-10 2.2956344e-10 1.0752657e-12 2.9181928e-09 5.828374e-11 2.4133617e-10
8.143174e-10 3.5933073e-10 1.4040087e-10 1.653918e-10 1.542284e-11 8.873931e-12 1.0972722e-10 1.6908693e-11
2.332853e-12 1.205549e-11 3.263448e-11 3.5509512e-11 5.0096434e-09 1.1553297e-10 1.7617588e-09 1.8917128e-11
1.9461141e-10 5.1142457e-10 5.9412897e-10 4.6265347e-10 3.864096e-10 3.7977614e-11 5.737804e-10 1.08832506e-10
8.2301044e-10 5.9871785e-10 3.561571e-11 3.778866e-10 2.9328545e-10 5.8850755e-08 1.7262469e-10 8.528454e-11
1.2863942e-10 4.1285333e-10 6.09233e-10 5.684826e-08 3.2966765e-11 1.8276247e-11 2.6127418e-11 2.2097296e-11
7.337214e-11 6.4131786e-12 3.3405372e-11 1.7292062e-10 1.2243871e-08 5.8764603e-12 3.2608102e-12 1.7641994e-11
4.0538798e-11 1.0234227e-12 3.508625e-11 1.2188358e-11 1.7335465e-10 8.103134e-11 6.177124e-09 5.694488e-11
2.8368334e-11 1.7749992e-10 7.602542e-11 5.251858e-10 1.2365954e-10 9.586761e-10 1.0672776e-09 6.4923735e-12
4.6500676e-10 1.6076432e-11 1.8477259e-09 3.7429174e-10 3.988335e-09 8.251041e-11 6.3243445e-11 3.3600585e-09
3.2720326e-10 5.1090256e-12 6.8573853e-12 1.9653439e-11 8.0998515e-09 1.7839289e-11 4.729631e-11 8.967666e-12
1.09664396e-11 1.1836856e-12 2.3429114e-10 5.2662413e-11 1.3309553e-10 7.1083456e-10 1.7378477e-11 8.696437e-10
5.955789e-11 5.914641e-11 2.3183332e-10 2.39442e-10 3.8239306e-10 1.8513184e-10 1.5104504e-11 1.3542476e-11
4.5480678e-11 5.6307216e-12 1.583931e-11 1.1141372e-10 2.4377831e-11 7.921659e-12 4.938005e-11 7.817359e-11
3.3862098e-09 1.5307651e-11 5.6856426e-11 3.2773961e-12 1.8938331e-10 2.5232982e-10 7.668341e-10 1.5145307e-11
1.1795792e-10 3.9053136e-11 4.2793755e-11 3.9891537e-10 3.611498e-12 3.7813013e-11 3.8151782e-10 9.827741e-11
1.3787979e-12 6.856934e-13 2.2059353e-10 4.17856e-09 1.976374e-09 5.251986e-10 1.5004666e-10 3.8425002e-10
1.0545171e-09 1.4420853e-11 3.0196107e-10 8.0383526e-11 5.0291094e-10 2.7910384e-11 2.219642e-11 2.019338e-11
8.88134e-11 1.267917e-12 2.4728783e-10 8.629976e-10 3.0691123e-11 1.0240041e-09 6.450207e-11 2.5529297e-11
3.2542277e-10 9.587315e-12 4.9712564e-11 5.9372984e-10 2.0232424e-10 1.6168496e-10 1.6894035e-11 3.767689e-12
2.9714655e-12 4.2893616e-11 6.7545956e-12 8.0177965e-12 1.1176868e-11 5.328809e-11 4.996053e-11 2.5561066e-12
3.734306e-10 9.0516844e-10 1.6060628e-10 1.8013268e-11 3.8361253e-10 1.4600248e-11 3.9772644e-11 4.5121493e-11
2.7102223e-10 1.6860074e-09 7.583336e-09 2.7261676e-11 8.3320816e-11 5.1472673e-11 4.5034962e-10 3.4239042e-11
2.6956387e-11 1.7481006e-12 5.895841e-11 9.4487335e-11 2.181511e-10 1.0912337e-11 9.718989e-13 1.5447377e-10
6.273901e-11 1.9843202e-10 1.4760528e-09 9.50781e-11 3.7454363e-11 1.6319116e-11 1.5935208e-11 4.0834672e-11
00000000: f141 e92d 3973 9d2f 8a56 be2f 960d 2230
00000010: d8e5 0c34 a51e ad2d 5bcf 332f a1a8 122e
00000020: 748a 102f 0de9 b32d d229 1a2c e23d 3b2d
00000030: 258e 2631 9c88 dc2d 6e79 492f 9796 b72f
00000040: 57bb 4e2e 74e3 932f f306 002f 3a87 8934
00000050: 6ed9 5d2c cb97 fd2d 8d89 112f 9e1a 0a2f
00000060: c01c 7d2d 15b8 a42f 8667 0831 b888 b730
00000070: 67b4 9630 51dc 962c 8cf2 b72f 9ce4 f92c
00000080: 40e5 4e2d 7e88 6b2c 0388 282f fe7b af30
00000090: 9ef9 992d 1541 c32e 5741 5430 41f8 f42f
000000a0: fec7 1432 a355 5b30 5af2 852d 4795 992e
000000b0: a439 9d2e 7c7c f230 dde6 a52d 41d9 ec2f
000000c0: 88ce 9f2f 8947 752b f77e 3530 8bc3 5d32
000000d0: 3ddf 1e30 1a7d 8e2b 581b 1831 d3af dc2e
000000e0: ecac 1f2f 87e8 882f 06f9 502f 5d68 7c2f
000000f0: 8854 972b 6489 4831 d42a 802e 0cad 842f
00000100: 7ed6 5f30 4e8b c52f 555f 1a2f a7d9 352f
00000110: 26a9 872d a21c 1c2d ef4a f12e feba 942d
00000120: f228 242c 1a15 542d 2887 0f2e 282c 1c2e
00000130: 4a21 ac31 480f fe2e 6122 f230 9665 a62d
00000140: 3efa 552f 4e94 0c30 1c50 2330 b058 fe2f
00000150: 516e d42f fe06 272e 35b8 1d30 4153 ef2e
00000160: 363a 6230 0693 2430 b9a3 1c2e d0be cf2f
00000170: 423c a12f 17c3 7c33 88cd 3d2f ee8a bb2e
00000180: c770 0d2f f1f7 e22f f676 2730 5329 7433
00000190: 47fd 102e 73c2 a02d b7d1 e52d b05e c22d
000001a0: d858 a12e c7a4 e12c 1beb 122e d420 3e2f
000001b0: 1d59 5232 73c2 ce2c 8975 652c 3d2e 9b2d
000001c0: a14a 322e b008 902b 9b4f 1a2e 7c6b 562d
000001d0: ff9a 3e2f 9730 b22e 8f3e d431 3c72 7a2e
000001e0: cf87 f92d c929 432f 822e a72e aa5c 1030
000001f0: 11f7 072f 6bc2 8330 7eaf 9230 1a6e e42c
00000200: e2a3 ff2f e868 8d2d 13f3 fd30 e1c4 cd2f
00000210: c409 8931 3b71 b52e e512 8b2e c6e6 6631
00000220: c4e1 b32f 03c2 b32c d645 f12c 9cdf ac2d
00000230: 8627 0b32 82ea 9c2d e902 502e c7c2 1d2d
00000240: 74ec 402d c596 a62b 8ccd 802f 9b9c 672e
00000250: 1057 122f 8964 4330 dadc 982d bc0b 6f30
00000260: 1df8 822e 7810 822e 47e7 7e2f 77a2 832f
00000270: 0a39 d22f fb8d 4b2f 52dc 842d e43d 6e2d
00000280: b106 482e 081d c62c f552 8b2d 5900 f52e
00000290: ff6d d62d fb5b 0b2d fe2c 592e d2e7 ab2e
000002a0: d5b2 6831 c4a5 862d a50e 7a2e 52a0 662c
000002b0: aa3a 502f 44b8 8a2f 27c9 5230 3338 852d
000002c0: 34b2 012f ecc1 2b2e 7c35 3c2e 594e db2f
000002d0: f722 7e2c ab4d 262e dcbd d12f 431d d82e
000002e0: 6e0c c22b 6b01 412b 8f8b 722f 0193 8f31
000002f0: bdd0 0731 915d 1030 61fa 242f 623e d32f
00000300: 86ee 9030 c0b1 7d2d 3e01 a62f e7c3 b02e
00000310: 363d 0a30 9980 f52d e53d c32d 739f b12d
00000320: 804d c32e 8671 b22b abf2 872f 0f38 6d30
00000330: 22fb 062e f1bc 8c30 70d7 8d2e de8e e02d
00000340: 2fe7 b22f 6ea9 282d 5fa3 5a2e 0634 2330
00000350: 3675 5e2f 45c6 312f fc99 942d 5390 842c
00000360: 2a19 512c eba5 3c2e fda7 ed2c f20c 0d2d
00000370: 23a0 442d 0e5d 6a2e 8eba 5b2e b9de 332c
00000380: af4b cd2f 91cf 7830 a696 302f 4672 9e2d
00000390: aae4 d22f d66c 802d 04ec 2e2e 4972 462e
000003a0: fdfe 942f 1db9 e730 dd47 0232 d6cb ef2d
000003b0: 7339 b72e 1461 622e 1395 f72f bc95 162e
000003c0: 631c ed2d f605 f62b a2a6 812e a4c7 cf2e
000003d0: 13dc 6f2f ccf8 3f2d 59c8 882b 80d8 292f
000003e0: ecf6 892e a62d 5a2f fedd ca30 3614 d12e
000003f0: ddb9 242e 628b 8f2d e62a 8c2d c197 332e

exp_avg f4 [7]
0.011099001 0.0005658961 -0.020056311 0.0060477685 0.002216084 -0.0020726633 0.001982952
00000000: 96d8 353c a558 143a 224d a4bc 5c2c c63b
00000010: b83b 113b 85d5 07bb 6af4 013b

exp_avg_sq f4 [7]
1.696607e-05 4.871175e-07 2.4930498e-05 2.6123878e-06 1.5535684e-06 3.60735e-06 9.894586e-07
00000000: 5c52 8e37 76c2 0235 d621 d137 7b50 2f36
00000010: 3484 d035 cd15 7236 8acd 8435

exp_avg f4 [7, 16]
0.00040755174 0.00079584325 -0.009788376 -0.0022121149 0.004348165 -0.00015716098 -0.0038458523 -0.008171933
-0.003933575 0.009819083 -0.007855389 0.0067716865 0.007491449 -0.005173389 4.71237e-05 -0.0065583875
-0.0086280275 -0.006562104 0.005238702 -0.005426425 -0.0100299325 -0.01159014 0.0073172753 -0.0083992975
0.008864192 0.008673744 0.0005475274 -0.006574949 0.010098702 0.0087405015 -1.5818523e-05 0.0064779697
-0.011728796 0.0055757435 0.0048583266 0.007906132 0.008930057 0.0070504695 0.006481768 0.0007546084
0.0075197225 -0.008461148 0.0048174844 -0.011269165 -0.009876701 0.0050235614 6.5969443e-06 0.0048635146
-0.00059077435 -0.0060594836 0.0012902473 0.011208145 -0.0018697794 -0.0059625474 -0.002607505 0.010949003
-0.0034955328 -0.0044725803 -0.0022958675 0.011252877 -0.0017082137 -0.0039857337 -7.2869403e-07 -0.0040167654
-0.004435123 -0.010208411 0.0052418485 0.007414984 -0.0043224664 0.009320966 -0.00943813 0.007356428
-0.004384851 0.009215906 0.0068492745 -0.008669397 -0.008337691 -0.0112135615 1.6367242e-06 -0.009938931
0.01385773 0.009040812 -0.011146998 -0.0069664796 -0.0057525104 0.008765098 -0.0038438083 0.008074225
0.0071119447 -0.005669292 -0.008053903 -0.0029392738 0.012624859 0.007554905 -1.9224651e-06 0.005467155
0.012349927 0.006930363 0.0030562954 -0.012289606 0.009216807 -0.007600366 0.0060624965 -0.010488015
-0.011328548 -0.009462586 0.0052072275 0.011378904 -0.009672687 -0.0010994271 1.1881638e-05 0.003404517
00000000: abac d539 23a0 503a 6d5f 20bc 21f9 10bb
00000010: 0d7b 8e3b 94cb 24b9 b20a 7cbb 92e3 05bc
00000020: 38e5 80bb 38e0 203c e4b3 00bc 06e5 dd3b
00000030: d47a f53b 8885 a9bb b0a6 4538 bee7 d6bb
00000040: 925c 0dbc eb06 d7bb 6ba9 ab3b 27d0 b1bb
00000050: 9654 24bc 92e4 3dbc c1c5 ef3b 359d 09bc
00000060: 1e3b 113c 521c 0e3c f187 0f3a ab72 d7bb
00000070: 0775 253c 5234 0f3c 05b2 84b7 2645 d43b
00000080: 232a 40bc bab4 b63b 9932 9f3b b988 013c
00000090: 604f 123c a007 e73b 0365 d43b ead0 453a
000000a0: 0168 f63b a0a0 0abc fddb 9d3b 4ea2 38bc
000000b0: e3d1 21bc b09c a43b 525b dd36 1e5e 9f3b
000000c0: 32de 1aba a28e c6bb 841d a93a 5ea2 373c
000000d0: 6313 f5ba 7961 c3bb ade2 2abb 7263 333c
000000e0: 4f15 65bb b98e 92bb 4476 16bb fd5d 383c
000000f0: 24e6 dfba c29a 82bb 799b 43b5 129f 83bb
00000100: 8254 91bb 2e41 27bc d0c3 ab3b 65f9 f23b
00000110: 7aa3 8dbb f7b6 183c 63a2 1abc 310e f13b
00000120: ccae 8fbb 50fe 163c e16f e03b 160a 0ebc
00000130: d09a 08bc 16b9 37bc 6aad db35 e6d6 22bc
00000140: 880b 633c ea1f 143c e6a1 36bc 1147 e4bb
00000150: 8e7f bcbb 7c9b 0f3c 67e8 7bbb c149 043c
00000160: 510b e93b 78c5 b9bb 84f4 03bc d5a0 40bb
00000170: 7fd8 4e3c 238f f73b b303 01b6 d225 b33b
00000180: 5957 4a3c 1918 e33b 214c 483b 585a 49bc
00000190: 1702 173c 7e0c f9bb e8a7 c63b ecd5 2bbc
000001a0: 609b 39bc f608 1bbc 64a1 aa3b 956e 3a3c
000001b0: 317a 1ebc a71a 90ba 3f57 4737 511e 5f3b

exp_avg_sq f4 [7, 16]
3.7639404e-07 2.6149476e-07 4.924908e-06 5.515833e-07 8.3806094e-07 3.469701e-07 1.36827e-06 3.071476e-06
1.1068817e-06 3.4419006e-06 3.7470109e-06 2.031764e-06 3.1294849e-06 1.937469e-06 1.3505834e-09 2.285367e-06
4.6949417e-06 1.966631e-06 1.1372978e-06 1.4856663e-06 4.887475e-06 7.528662e-06 2.059272e-06 3.3031943e-06
3.2726612e-06 2.6256857e-06 1.7074812e-07 2.1894173e-06 5.3255712e-06 4.428128e-06 6.621495e-10 2.0478055e-06
5.699574e-06 1.7694626e-06 1.3926202e-06 2.53086e-06 4.428045e-06 2.6364316e-06 2.2668664e-06 1.8828028e-07
4.123375e-06 2.159914e-06 9.659166e-07 6.0905118e-06 4.4437015e-06 1.6981317e-06 1.9406465e-10 1.6410777e-06
6.119512e-07 2.3266552e-06 2.5630908e-07 5.4000557e-06 7.087943e-07 1.6544734e-06 1.5934328e-06 5.21481e-06
1.1111885e-06 9.2491837e-07 6.25064e-07 4.9474493e-06 7.8359625e-07 1.6065247e-06 5.945071e-11 2.591407e-06
1.7716497e-06 6.899295e-06 1.549604e-06 4.0861983e-06 1.6270434e-06 4.372719e-06 4.190807e-06 3.2170312e-06
1.0309378e-06 3.237481e-06 2.1945873e-06 3.7535383e-06 4.393067e-06 8.1802855e-06 1.9329378e-11 4.5953466e-06
9.312285e-06 4.0800746e-06 6.9973985e-06 2.345047e-06 1.3607253e-06 3.267509e-06 6.496848e-07 2.7862955e-06
2.2476697e-06 1.83721e-06 2.6707946e-06 9.2498794e-07 8.016209e-06 2.9571436e-06 7.7967514e-11 1.4293089e-06
8.156265e-06 2.9089044e-06 9.041785e-07 1.1645708e-05 5.253034e-06 2.7648039e-06 2.930467e-06 7.1487143e-06
6.953143e-06 4.408084e-06 1.4818393e-06 5.974028e-06 6.3615803e-06 2.2154684e-07 6.519191e-10 9.995691e-07
00000000: 3413 ca34 9163 8c34 a340 a536 8410 1435
00000010: 1cf7 6035 3547 ba34 66a5 b735 8e1f 4e36
00000020: 2a90 9435 67fb 6636 2875 7b36 7159 0836
00000030: 2404 5236 7705 0236 6e9f b930 4e5e 1936
00000040: 3e89 9d36 77fa 0336 41a5 9835 1b67 c735
00000050: 17ff a336 b79e fc36 0632 0a36 72ac 5d36
00000060: e49f 5b36 f034 3036 e356 3734 e7ed 1236
00000070: 4fb2 b236 5495 9436 a102 3630 086d 0936
00000080: f83e bf36 467e ed35 11ea ba35 d8d7 2936
00000090: 9e94 9436 8ded 3036 7820 1836 172a 4a34
000000a0: 865b 8a36 0af3 1036 a4a4 8135 195d cc36
000000b0: 1b1b 9536 5ceb e335 5860 552f 0043 dc35
000000c0: f744 2435 a223 1c36 da9a 8934 2032 b536
000000d0: f943 3e35 460f de35 efdd d535 e0fa ae36
000000e0: 2524 9535 e847 7835 12ca 2735 4402 a636
000000f0: 5358 5235 c59f d735 c6bb 822e 09e8 2d36
00000100: 6cc9 ed35 7e80 e736 fdfb cf35 2d1c 8936
00000110: c960 da35 5fb9 9236 c29e 8c36 2de4 5736
00000120: c15e 8a35 8043 5936 b946 1336 4ce5 7b36
00000130: 2868 9336 0f3e 0937 e405 aa2d ba31 9a36
00000140: f63b 1c37 93e7 8836 32cb ea36 9a5f 1d36
00000150: 2aa2 b635 6147 5b36 0066 2e35 31fc 3a36
00000160: acd6 1636 0e96 f635 e73b 3336 b04c 7835
00000170: 5b7d 0637 5773 4636 cf73 ab2e aed6 bf35
00000180: e4d6 0837 9936 4336 acb6 7235 ef61 4337
00000190: 3843 b036 f88a 3936 0aa9 4436 fdde ef36
000001a0: 0b4f e936 27e9 9336 9ce3 c635 8374 c836
000001b0: 8f75 d536 55e2 6d34 ba32 3330 ef28 8635
